----------------------------------------------------------------
        Layer (type)               Output Shape         Param #
================================================================
            Linear-1                  [-1, 128]             640
              ReLU-2                  [-1, 128]               0
            Linear-3                  [-1, 128]          16,512
              ReLU-4                  [-1, 128]               0
            Linear-5                    [-1, 2]             258
================================================================
Total params: 17,410
Trainable params: 17,410
Non-trainable params: 0
----------------------------------------------------------------
Input size (MB): 0.00
Forward/backward pass size (MB): 0.00
Params size (MB): 0.07
Estimated Total Size (MB): 0.07
----------------------------------------------------------------
None

 Number of parameters:  17410 
…
